…
 by its filter. When working with two classes, the proposed model performs the COVID-19 detection task. If three different classes of images are used in the input, the same model performs the classification task to determine the labels of the input chest X-ray images as COVID-19, Pneumonia, or No-Findings. Finally, the layer details and layer parameters of the model are given in Table 1. The developed deep

Table 1 The layers and layer parameters of the proposed model (for the binary classifi­ cation task).

Number of Layer

Layer Type

Output Shape

Number of Trainable Parameters

1

Conv2d

[8, 256, 256] 216

2

Conv2d

[16, 128,

1152

128]

3

Conv2d

[32, 64, 64]

4608

4

Conv2d

[16, 66, 66]

512

5

Conv2d

[32, 66, 66]

4608

6

Conv2d

[64, 33, 33]

18,432

7

Conv2d

[32, 35, 35]

2048

8

Conv2d

[64, 35, 35]

18,432

9

Conv2d

[128, 17, 17] 73,728

10

Conv2d

[64, 19, 19]

8192

11

Conv2d

[128, 19, 19] 73,728

12

Conv2d

[256, 9, 9]

294,912

13

Conv2d

[128, 11, 11] 32,768

14

Conv2d

[256, 11, 11] 294,912

15

Conv2d

[128, 13, 13] 256

16

Conv2d

[256, 13, 13] 294,912

17

Conv2d

[2, 13, 13]

4608

18

Flatten

[338]

0

19

Linear

[2]

678

Fig. 4. The architecture of the proposed model (DarkCovidNet). 4

T. Ozturk et al.
learning model consists of 1,164,434 parameters. We have used the Adam optimizer for weight updates, cross entropy loss function and selected learning rate as 3e-3.

Computers in Biology and Medicine 121 (2020) 103792

3. Experimental results
…
